…
[2024-06-18 12:22] !!! Exception during processing!!! Failed to load SDXL model
[2024-06-18 12:22] Traceback (most recent call last):
  File "C:\Users\Lightmapper\Documents\GitHub\ComfyUI\custom_nodes\ComfyUI-SUPIR\nodes_v2.py", line 883, in process
    set_module_tensor_to_device(self.model, key, device=device, dtype=dtype, value=sdxl_state_dict[key])
  File "C:\Python310\lib\site-packages\accelerate\utils\modeling.py", line 276, in set_module_tensor_to_device
    raise ValueError(f"{module} does not have a parameter or a buffer named {tensor_name}.")
ValueError: LightGLVUNet(
  (time_embed): Sequential(
    (0): Linear(in_features=320, out_features=1280, bias=True)
    (1): SiLU()
    (2): Linear(in_features=1280, out_features=1280, bias=True)
  )
  (label_emb): Sequential(
    (0): Sequential(
      (0): Linear(in_features=2816, out_features=1280, bias=True)
      (1): SiLU()
      (2): Linear(in_features=1280, out_features=1280, bias=True)
    )
  )
  (input_blocks): ModuleList(
    (0): TimestepEmbedSequential(
      (0): Conv2d(4, 320, kernel_size=(3, 3), stride=(1, 1), padding=(1, 1))
    )
    (1-2): 2 x TimestepEmbedSequential(
      (0): ResBlock(
        (in_layers): Sequential(
          (0): GroupNorm32(32, 320, eps=1e-05, affine=True)
          (1): SiLU()
          (2): Conv2d(320, 320, kernel_size=(3, 3), stride=(1, 1), padding=(1, 1))
        )
        (h_upd): Identity()
        (x_upd): Identity()
        (emb_layers): Sequential(
          (0): SiLU()
          (1): Linear(in_features=1280, out_features=320, bias=True)
        )
        (out_layers): Sequential(
          (0): GroupNorm32(32, 320, eps=1e-05, affine=True)
          (1): SiLU()
          (2): Dropout(p=0, inplace=False)
          (3): Conv2d(320, 320, kernel_size=(3, 3), stride=(1, 1), padding=(1, 1))
        )
        (skip_connection): Identity()
      )
    )
    (3): TimestepEmbedSequential(
      (0): Downsample(
        (op): Conv2d(320, 320, kernel_size=(3, 3), stride=(2, 2), padding=(1, 1))
      )
    )
    (4): TimestepEmbedSequential(
      (0): ResBlock(
        (in_layers): Sequential(
          (0): GroupNorm32(32, 320, eps=1e-05, affine=True)
          (1): SiLU()
          (2): Conv2d(320, 640, kernel_size=(3, 3), stride=(1, 1), padding=(1, 1))
        )
        (h_upd): Identity()
        (x_upd): Identity()
        (emb_layers): Sequential(
          (0): SiLU()
          (1): Linear(in_features=1280, out_features=640, bias=True)
        )
        (out_layers): Sequential(
          (0): GroupNorm32(32, 640, eps=1e-05, affine=True)
          (1): SiLU()
          (2): Dropout(p=0, inplace=False)
          (3): Conv2d(640, 640, kernel_size=(3, 3), stride=(1, 1), padding=(1, 1))
        )
        (skip_connection): Conv2d(320, 640, kernel_size=(1, 1), stride=(1, 1))
      )
      (1): SpatialTransformer(
        (norm): GroupNorm(32, 640, eps=1e-06, affine=True)
        (proj_in): Linear(in_features=640, out_features=640, bias=True)
        (transformer_blocks): ModuleList(
          (0-1): 2 x BasicTransformerBlock(
            (attn1): CrossAttention(
              (to_q): Linear(in_features=640, out_features=640, bias=False)
              (to_k): Linear(in_features=640, out_features=640, bias=False)
              (to_v): Linear(in_features=640, out_features=640, bias=False)
              (to_out): Sequential(
                (0): Linear(in_features=640, out_features=640, bias=True)
                (1): Dropout(p=0.0, inplace=False)
              )
            )
            (ff): FeedForward(
              (net): Sequential(
                (0): GEGLU(
                  (proj): Linear(in_features=640, out_features=5120, bias=True)
                )
                (1): Dropout(p=0.0, inplace=False)
                (2): Linear(in_features=2560, out_features=640, bias=True)
              )
            )
            (attn2): CrossAttention(
              (to_q): Linear(in_features=640, out_features=640, bias=False)
              (to_k): Linear(in_features=2048, out_features=640, bias=False)
              (to_v): Linear(in_features=2048, out_features=640, bias=False)
              (to_out): Sequential(
                (0): Linear(in_features=640, out_features=640, bias=True)
                (1): Dropout(p=0.0, inplace=False)
              )
            )
            (norm1): LayerNorm((640,), eps=1e-05, elementwise_affine=True)
            (norm2): LayerNorm((640,), eps=1e-05, elementwise_affine=True)
            (norm3): LayerNorm((640,), eps=1e-05, elementwise_affine=True)
          )
        )
        (proj_out): Linear(in_features=640, out_features=640, bias=True)
      )
    )
    (5): TimestepEmbedSequential(
      (0): ResBlock(
        (in_layers): Sequential(
          (0): GroupNorm32(32, 640, eps=1e-05, affine=True)
          (1): SiLU()
          (2): Conv2d(640, 640, kernel_size=(3, 3), stride=(1, 1), padding=(1, 1))
        )
        (h_upd): Identity()
        (x_upd): Identity()
        (emb_layers): Sequential(
          (0): SiLU()
          (1): Linear(in_features=1280, out_features=640, bias=True)
        )
        (out_layers): Sequential(
          (0): GroupNorm32(32, 640, eps=1e-05, affine=True)
          (1): SiLU()
          (2): Dropout(p=0, inplace=False)
          (3): Conv2d(640, 640, kernel_size=(3, 3), stride=(1, 1), padding=(1, 1))
        )
        (skip_connection): Identity()
      )
      (1): SpatialTransformer(
        (norm): GroupNorm(32, 640, eps=1e-06, affine=True)
        (proj_in): Linear(in_features=640, out_features=640, bias=True)
        (transformer_blocks): ModuleList(
          (0-1): 2 x BasicTransformerBlock(
            (attn1): CrossAttention(
              (to_q): Linear(in_features=640, out_features=640, bias=False)
              (to_k): Linear(in_features=640, out_features=640, bias=False)
              (to_v): Linear(in_features=640, out_features=640, bias=False)
              (to_out): Sequential(
                (0): Linear(in_features=640, out_features=640, bias=True)
                (1): Dropout(p=0.0, inplace=False)
              )
            )
            (ff): FeedForward(
              (net): Sequential(
                (0): GEGLU(
                  (proj): Linear(in_features=640, out_features=5120, bias=True)
                )
                (1): Dropout(p=0.0, inplace=False)
                (2): Linear(in_features=2560, out_features=640, bias=True)
              )
            )
            (attn2): CrossAttention(
              (to_q): Linear(in_features=640, out_features=640, bias=False)
              (to_k): Linear(in_features=2048, out_features=640, bias=False)
              (to_v): Linear(in_features=2048, out_features=640, bias=False)
              (to_out): Sequential(
                (0): Linear(in_features=640, out_features=640, bias=True)
                (1): Dropout(p=0.0, inplace=False)
              )
            )
            (norm1): LayerNorm((640,), eps=1e-05, elementwise_affine=True)
            (norm2): LayerNorm((640,), eps=1e-05, elementwise_affine=True)
            (norm3): LayerNorm((640,), eps=1e-05, elementwise_affine=True)
          )
        )
        (proj_out): Linear(in_features=640, out_features=640, bias=True)
      )
    )
    (6): TimestepEmbedSequential(
      (0): Downsample(
        (op): Conv2d(640, 640, kernel_size=(3, 3), stride=(2, 2), padding=(1, 1))
      )
    )
    (7): TimestepEmbedSequential(
      (0): ResBlock(
        (in_layers): Sequential(
          (0): GroupNorm32(32, 640, eps=1e-05, affine=True)
          (1): SiLU()
          (2): Conv2d(640, 1280, kernel_size=(3, 3), stride=(1, 1), padding=(1, 1))
        )
        (h_upd): Identity()
        (x_upd): Identity()
        (emb_layers): Sequential(
          (0): SiLU()
          (1): Linear(in_features=1280, out_features=1280, bias=True)
        )
        (out_layers): Sequential(
          (0): GroupNorm32(32, 1280, eps=1e-05, affine=True)
          (1): SiLU()
          (2): Dropout(p=0, inplace=False)
          (3): Conv2d(1280, 1280, kernel_size=(3, 3), stride=(1, 1), padding=(1, 1))
        )
        (skip_connection): Conv2d(640, 1280, kernel_size=(1, 1), stride=(1, 1))
      )
      (1): SpatialTransformer(
        (norm): GroupNorm(32, 1280, eps=1e-06, affine=True)
        (proj_in): Linear(in_features=1280, out_features=1280, bias=True)
        (transformer_blocks): ModuleList(
          (0-9): 10 x BasicTransformerBlock(
            (attn1): CrossAttention(
              (to_q): Linear(in_features=1280, out_features=1280, bias=False)
              (to_k): Linear(in_features=1280, out_features=1280, bias=False)
              (to_v): Linear(in_features=1280, out_features=1280, bias=False)
              (to_out): Sequential(
                (0): Linear(in_features=1280, out_features=1280, bias=True)
                (1): Dropout(p=0.0, inplace=False)
              )
            )
            (ff): FeedForward(
              (net): Sequential(
                (0): GEGLU(
                  (proj): Linear(in_features=1280, out_features=10240, bias=True)
                )
                (1): Dropout(p=0.0, inplace=False)
                (2): Linear(in_features=5120, out_features=1280, bias=True)
              )
            )
            (attn2): CrossAttention(
              (to_q): Linear(in_features=1280, out_features=1280, bias=False)
              (to_k): Linear(in_features=2048, out_features=1280, bias=False)
              (to_v): Linear(in_features=2048, out_features=1280, bias=False)
              (to_out): Sequential(
                (0): Linear(in_features=1280, out_features=1280, bias=True)
                (1): Dropout(p=0.0, inplace=False)
              )
            )
            (norm1): LayerNorm((1280,), eps=1e-05, elementwise_affine=True)
            (norm2): LayerNorm((1280,), eps=1e-05, elementwise_affine=True)
            (norm3): LayerNorm((1280,), eps=1e-05, elementwise_affine=True)
          )
        )
        (proj_out): Linear(in_features=1280, out_features=1280, bias=True)
      )
    )
    (8): TimestepEmbedSequential(
      (0): ResBlock(
        (in_layers): Sequential(
          (0): GroupNorm32(32, 1280, eps=1e-05, affine=True)
          (1): SiLU()
          (2): Conv2d(1280, 1280, kernel_size=(3, 3), stride=(1, 1), padding=(1, 1))
        )
        (h_upd): Identity()
        (x_upd): Identity()
        (emb_layers): Sequential(
          (0): SiLU()
          (1): Linear(in_features=1280, out_features=1280, bias=True)
        )
        (out_layers): Sequential(
          (0): GroupNorm32(32, 1280, eps=1e-05, affine=True)
          (1): SiLU()
          (2): Dropout(p=0, inplace=False)
          (3): Conv2d(1280, 1280, kernel_size=(3, 3), stride=(1, 1), padding=(1, 1))
        )
        (skip_connection): Identity()
      )
      (1): SpatialTransformer(
        (norm): GroupNorm(32, 1280, eps=1e-06, affine=True)
        (proj_in): Linear(in_features=1280, out_features=1280, bias=True)
        (transformer_blocks): ModuleList(
          (0-9): 10 x BasicTransformerBlock(
            (attn1): CrossAttention(
              (to_q): Linear(in_features=1280, out_features=1280, bias=False)
              (to_k): Linear(in_features=1280, out_features=1280, bias=False)
              (to_v): Linear(in_features=1280, out_features=1280, bias=False)
              (to_out): Sequential(
                (0): Linear(in_features=1280, out_features=1280, bias=True)
                (1): Dropout(p=0.0, inplace=False)
              )
            )
            (ff): FeedForward(
              (net): Sequential(
                (0): GEGLU(
                  (proj): Linear(in_features=1280, out_features=10240, bias=True)
                )
                (1): Dropout(p=0.0, inplace=False)
                (2): Linear(in_features=5120, out_features=1280, bias=True)
              )
            )
            (attn2): CrossAttention(
              (to_q): Linear(in_features=1280, out_features=1280, bias=False)
              (to_k): Linear(in_features=2048, out_features=1280, bias=False)
              (to_v): Linear(in_features=2048, out_features=1280, bias=False)
              (to_out): Sequential(
                (0): Linear(in_features=1280, out_features=1280, bias=True)
                (1): Dropout(p=0.0, inplace=False)
              )
            )
            (norm1): LayerNorm((1280,), eps=1e-05, elementwise_affine=True)
            (norm2): LayerNorm((1280,), eps=1e-05, elementwise_affine=True)
            (norm3): LayerNorm((1280,), eps=1e-05, elementwise_affine=True)
          )
        )
        (proj_out): Linear(in_features=1280, out_features=1280, bias=True)
      )
    )
  )
  (middle_block): TimestepEmbedSequential(
    (0): ResBlock(
      (in_layers): Sequential(
        (0): GroupNorm32(32, 1280, eps=1e-05, affine=True)
        (1): SiLU()
        (2): Conv2d(1280, 1280, kernel_size=(3, 3), stride=(1, 1), padding=(1, 1))
      )
      (h_upd): Identity()
      (x_upd): Identity()
      (emb_layers): Sequential(
        (0): SiLU()
        (1): Linear(in_features=1280, out_features=1280, bias=True)
      )
      (out_layers): Sequential(
        (0): GroupNorm32(32, 1280, eps=1e-05, affine=True)
        (1): SiLU()
        (2): Dropout(p=0, inplace=False)
        (3): Conv2d(1280, 1280, kernel_size=(3, 3), stride=(1, 1), padding=(1, 1))
      )
      (skip_connection): Identity()
    )
    (1): SpatialTransformer(
      (norm): GroupNorm(32, 1280, eps=1e-06, affine=True)
      (proj_in): Linear(in_features=1280, out_features=1280, bias=True)
      (transformer_blocks): ModuleList(
        (0-9): 10 x BasicTransformerBlock(
          (attn1): CrossAttention(
            (to_q): Linear(in_features=1280, out_features=1280, bias=False)
            (to_k): Linear(in_features=1280, out_features=1280, bias=False)
            (to_v): Linear(in_features=1280, out_features=1280, bias=False)
            (to_out): Sequential(
              (0): Linear(in_features=1280, out_features=1280, bias=True)
              (1): Dropout(p=0.0, inplace=False)
            )
          )
          (ff): FeedForward(
            (net): Sequential(
              (0): GEGLU(
                (proj): Linear(in_features=1280, out_features=10240, bias=True)
              )
              (1): Dropout(p=0.0, inplace=False)
              (2): Linear(in_features=5120, out_features=1280, bias=True)
            )
          )
          (attn2): CrossAttention(
            (to_q): Linear(in_features=1280, out_features=1280, bias=False)
            (to_k): Linear(in_features=2048, out_features=1280, bias=False)
            (to_v): Linear(in_features=2048, out_features=1280, bias=False)
            (to_out): Sequential(
              (0): Linear(in_features=1280, out_features=1280, bias=True)
              (1): Dropout(p=0.0, inplace=False)
            )
          )
          (norm1): LayerNorm((1280,), eps=1e-05, elementwise_affine=True)
          (norm2): LayerNorm((1280,), eps=1e-05, elementwise_affine=True)
          (norm3): LayerNorm((1280,), eps=1e-05, elementwise_affine=True)
        )
      )
      (proj_out): Linear(in_features=1280, out_features=1280, bias=True)
    )
    (2): ResBlock(
      (in_layers): Sequential(
        (0): GroupNorm32(32, 1280, eps=1e-05, affine=True)
        (1): SiLU()
        (2): Conv2d(1280, 1280, kernel_size=(3, 3), stride=(1, 1), padding=(1, 1))
      )
      (h_upd): Identity()
      (x_upd): Identity()
      (emb_layers): Sequential(
        (0): SiLU()
        (1): Linear(in_features=1280, out_features=1280, bias=True)
      )
      (out_layers): Sequential(
        (0): GroupNorm32(32, 1280, eps=1e-05, affine=True)
        (1): SiLU()
        (2): Dropout(p=0, inplace=False)
        (3): Conv2d(1280, 1280, kernel_size=(3, 3), stride=(1, 1), padding=(1, 1))
      )
      (skip_connection): Identity()
    )
  )
  (output_blocks): ModuleList(
    (0-1): 2 x TimestepEmbedSequential(
      (0): ResBlock(
        (in_layers): Sequential(
          (0): GroupNorm32(32, 2560, eps=1e-05, affine=True)
          (1): SiLU()
          (2): Conv2d(2560, 1280, kernel_size=(3, 3), stride=(1, 1), padding=(1, 1))
        )
        (h_upd): Identity()
        (x_upd): Identity()
        (emb_layers): Sequential(
          (0): SiLU()
          (1): Linear(in_features=1280, out_features=1280, bias=True)
        )
        (out_layers): Sequential(
          (0): GroupNorm32(32, 1280, eps=1e-05, affine=True)
          (1): SiLU()
          (2): Dropout(p=0, inplace=False)
          (3): Conv2d(1280, 1280, kernel_size=(3, 3), stride=(1, 1), padding=(1, 1))
        )
        (skip_connection): Conv2d(2560, 1280, kernel_size=(1, 1), stride=(1, 1))
      )
      (1): SpatialTransformer(
        (norm): GroupNorm(32, 1280, eps=1e-06, affine=True)
        (proj_in): Linear(in_features=1280, out_features=1280, bias=True)
        (transformer_blocks): ModuleList(
          (0-9): 10 x BasicTransformerBlock(
            (attn1): CrossAttention(
              (to_q): Linear(in_features=1280, out_features=1280, bias=False)
              (to_k): Linear(in_features=1280, out_features=1280, bias=False)
              (to_v): Linear(in_features=1280, out_features=1280, bias=False)
              (to_out): Sequential(
                (0): Linear(in_features=1280, out_features=1280, bias=True)
                (1): Dropout(p=0.0, inplace=False)
              )
            )
            (ff): FeedForward(
              (net): Sequential(
                (0): GEGLU(
                  (proj): Linear(in_features=1280, out_features=10240, bias=True)
                )
                (1): Dropout(p=0.0, inplace=False)
                (2): Linear(in_features=5120, out_features=1280, bias=True)
              )
            )
            (attn2): CrossAttention(
              (to_q): Linear(in_features=1280, out_features=1280, bias=False)
              (to_k): Linear(in_features=2048, out_features=1280, bias=False)
              (to_v): Linear(in_features=2048, out_features=1280, bias=False)
              (to_out): Sequential(
                (0): Linear(in_features=1280, out_features=1280, bias=True)
                (1): Dropout(p=0.0, inplace=False)
              )
            )
            (norm1): LayerNorm((1280,), eps=1e-05, elementwise_affine=True)
            (norm2): LayerNorm((1280,), eps=1e-05, elementwise_affine=True)
            (norm3): LayerNorm((1280,), eps=1e-05, elementwise_affine=True)
          )
        )
        (proj_out): Linear(in_features=1280, out_features=1280, bias=True)
      )
    )
    (2): TimestepEmbedSequential(
      (0): ResBlock(
        (in_layers): Sequential(
          (0): GroupNorm32(32, 1920, eps=1e-05, affine=True)
          (1): SiLU()
          (2): Conv2d(1920, 1280, kernel_size=(3, 3), stride=(1, 1), padding=(1, 1))
        )
        (h_upd): Identity()
        (x_upd): Identity()
        (emb_layers): Sequential(
          (0): SiLU()
          (1): Linear(in_features=1280, out_features=1280, bias=True)
        )
        (out_layers): Sequential(
          (0): GroupNorm32(32, 1280, eps=1e-05, affine=True)
          (1): SiLU()
          (2): Dropout(p=0, inplace=False)
          (3): Conv2d(1280, 1280, kernel_size=(3, 3), stride=(1, 1), padding=(1, 1))
        )
        (skip_connection): Conv2d(1920, 1280, kernel_size=(1, 1), stride=(1, 1))
      )
      (1): SpatialTransformer(
        (norm): GroupNorm(32, 1280, eps=1e-06, affine=True)
        (proj_in): Linear(in_features=1280, out_features=1280, bias=True)
        (transformer_blocks): ModuleList(
          (0-9): 10 x BasicTransformerBlock(
            (attn1): CrossAttention(
              (to_q): Linear(in_features=1280, out_features=1280, bias=False)
              (to_k): Linear(in_features=1280, out_features=1280, bias=False)
              (to_v): Linear(in_features=1280, out_features=1280, bias=False)
              (to_out): Sequential(
                (0): Linear(in_features=1280, out_features=1280, bias=True)
                (1): Dropout(p=0.0, inplace=False)
              )
            )
            (ff): FeedForward(
              (net): Sequential(
                (0): GEGLU(
                  (proj): Linear(in_features=1280, out_features=10240, bias=True)
                )
                (1): Dropout(p=0.0, inplace=False)
                (2): Linear(in_features=5120, out_features=1280, bias=True)
              )
            )
            (attn2): CrossAttention(
              (to_q): Linear(in_features=1280, out_features=1280, bias=False)
              (to_k): Linear(in_features=2048, out_features=1280, bias=False)
              (to_v): Linear(in_features=2048, out_features=1280, bias=False)
              (to_out): Sequential(
                (0): Linear(in_features=1280, out_features=1280, bias=True)
                (1): Dropout(p=0.0, inplace=False)
              )
            )
            (norm1): LayerNorm((1280,), eps=1e-05, elementwise_affine=True)
            (norm2): LayerNorm((1280,), eps=1e-05, elementwise_affine=True)
            (norm3): LayerNorm((1280,), eps=1e-05, elementwise_affine=True)
          )
        )
        (proj_out): Linear(in_features=1280, out_features=1280, bias=True)
      )
      (2): Upsample(
        (conv): Conv2d(1280, 1280, kernel_size=(3, 3), stride=(1, 1), padding=(1, 1))
      )
    )
    (3): TimestepEmbedSequential(
      (0): ResBlock(
        (in_layers): Sequential(
          (0): GroupNorm32(32, 1920, eps=1e-05, affine=True)
          (1): SiLU()
          (2): Conv2d(1920, 640, kernel_size=(3, 3), stride=(1, 1), padding=(1, 1))
        )
        (h_upd): Identity()
        (x_upd): Identity()
        (emb_layers): Sequential(
          (0): SiLU()
          (1): Linear(in_features=1280, out_features=640, bias=True)
        )
        (out_layers): Sequential(
          (0): GroupNorm32(32, 640, eps=1e-05, affine=True)
          (1): SiLU()
          (2): Dropout(p=0, inplace=False)
          (3): Conv2d(640, 640, kernel_size=(3, 3), stride=(1, 1), padding=(1, 1))
        )
        (skip_connection): Conv2d(1920, 640, kernel_size=(1, 1), stride=(1, 1))
      )
      (1): SpatialTransformer(
        (norm): GroupNorm(32, 640, eps=1e-06, affine=True)
        (proj_in): Linear(in_features=640, out_features=640, bias=True)
        (transformer_blocks): ModuleList(
          (0-1): 2 x BasicTransformerBlock(
            (attn1): CrossAttention(
              (to_q): Linear(in_features=640, out_features=640, bias=False)
              (to_k): Linear(in_features=640, out_features=640, bias=False)
              (to_v): Linear(in_features=640, out_features=640, bias=False)
              (to_out): Sequential(
                (0): Linear(in_features=640, out_features=640, bias=True)
                (1): Dropout(p=0.0, inplace=False)
              )
            )
            (ff): FeedForward(
              (net): Sequential(
                (0): GEGLU(
                  (proj): Linear(in_features=640, out_features=5120, bias=True)
                )
                (1): Dropout(p=0.0, inplace=False)
                (2): Linear(in_features=2560, out_features=640, bias=True)
              )
            )
            (attn2): CrossAttention(
              (to_q): Linear(in_features=640, out_features=640, bias=False)
              (to_k): Linear(in_features=2048, out_features=640, bias=False)
              (to_v): Linear(in_features=2048, out_features=640, bias=False)
              (to_out): Sequential(
                (0): Linear(in_features=640, out_features=640, bias=True)
                (1): Dropout(p=0.0, inplace=False)
              )
            )
            (norm1): LayerNorm((640,), eps=1e-05, elementwise_affine=True)
            (norm2): LayerNorm((640,), eps=1e-05, elementwise_affine=True)
            (norm3): LayerNorm((640,), eps=1e-05, elementwise_affine=True)
          )
        )
        (proj_out): Linear(in_features=640, out_features=640, bias=True)
      )
    )
    (4): TimestepEmbedSequential(
      (0): ResBlock(
        (in_layers): Sequential(
          (0): GroupNorm32(32, 1280, eps=1e-05, affine=True)
          (1): SiLU()
          (2): Conv2d(1280, 640, kernel_size=(3, 3), stride=(1, 1), padding=(1, 1))
        )
        (h_upd): Identity()
        (x_upd): Identity()
        (emb_layers): Sequential(
          (0): SiLU()
          (1): Linear(in_features=1280, out_features=640, bias=True)
        )
        (out_layers): Sequential(
          (0): GroupNorm32(32, 640, eps=1e-05, affine=True)
          (1): SiLU()
          (2): Dropout(p=0, inplace=False)
          (3): Conv2d(640, 640, kernel_size=(3, 3), stride=(1, 1), padding=(1, 1))
        )
        (skip_connection): Conv2d(1280, 640, kernel_size=(1, 1), stride=(1, 1))
      )
      (1): SpatialTransformer(
        (norm): GroupNorm(32, 640, eps=1e-06, affine=True)
        (proj_in): Linear(in_features=640, out_features=640, bias=True)
        (transformer_blocks): ModuleList(
          (0-1): 2 x BasicTransformerBlock(
            (attn1): CrossAttention(
              (to_q): Linear(in_features=640, out_features=640, bias=False)
              (to_k): Linear(in_features=640, out_features=640, bias=False)
              (to_v): Linear(in_features=640, out_features=640, bias=False)
              (to_out): Sequential(
                (0): Linear(in_features=640, out_features=640, bias=True)
                (1): Dropout(p=0.0, inplace=False)
              )
            )
            (ff): FeedForward(
              (net): Sequential(
                (0): GEGLU(
                  (proj): Linear(in_features=640, out_features=5120, bias=True)
                )
                (1): Dropout(p=0.0, inplace=False)
                (2): Linear(in_features=2560, out_features=640, bias=True)
              )
            )
            (attn2): CrossAttention(
              (to_q): Linear(in_features=640, out_features=640, bias=False)
              (to_k): Linear(in_features=2048, out_features=640, bias=False)
              (to_v): Linear(in_features=2048, out_features=640, bias=False)
              (to_out): Sequential(
                (0): Linear(in_features=640, out_features=640, bias=True)
                (1): Dropout(p=0.0, inplace=False)
              )
            )
            (norm1): LayerNorm((640,), eps=1e-05, elementwise_affine=True)
            (norm2): LayerNorm((640,), eps=1e-05, elementwise_affine=True)
            (norm3): LayerNorm((640,), eps=1e-05, elementwise_affine=True)
          )
        )
        (proj_out): Linear(in_features=640, out_features=640, bias=True)
      )
    )
    (5): TimestepEmbedSequential(
      (0): ResBlock(
        (in_layers): Sequential(
          (0): GroupNorm32(32, 960, eps=1e-05, affine=True)
          (1): SiLU()
          (2): Conv2d(960, 640, kernel_size=(3, 3), stride=(1, 1), padding=(1, 1))
        )
        (h_upd): Identity()
        (x_upd): Identity()
        (emb_layers): Sequential(
          (0): SiLU()
          (1): Linear(in_features=1280, out_features=640, bias=True)
        )
        (out_layers): Sequential(
          (0): GroupNorm32(32, 640, eps=1e-05, affine=True)
          (1): SiLU()
          (2): Dropout(p=0, inplace=False)
          (3): Conv2d(640, 640, kernel_size=(3, 3), stride=(1, 1), padding=(1, 1))
        )
        (skip_connection): Conv2d(960, 640, kernel_size=(1, 1), stride=(1, 1))
      )
      (1): SpatialTransformer(
        (norm): GroupNorm(32, 640, eps=1e-06, affine=True)
        (proj_in): Linear(in_features=640, out_features=640, bias=True)
        (transformer_blocks): ModuleList(
          (0-1): 2 x BasicTransformerBlock(
            (attn1): CrossAttention(
              (to_q): Linear(in_features=640, out_features=640, bias=False)
              (to_k): Linear(in_features=640, out_features=640, bias=False)
              (to_v): Linear(in_features=640, out_features=640, bias=False)
              (to_out): Sequential(
                (0): Linear(in_features=640, out_features=640, bias=True)
                (1): Dropout(p=0.0, inplace=False)
              )
            )
            (ff): FeedForward(
              (net): Sequential(
                (0): GEGLU(
                  (proj): Linear(in_features=640, out_features=5120, bias=True)
                )
                (1): Dropout(p=0.0, inplace=False)
                (2): Linear(in_features=2560, out_features=640, bias=True)
              )
            )
            (attn2): CrossAttention(
              (to_q): Linear(in_features=640, out_features=640, bias=False)
              (to_k): Linear(in_features=2048, out_features=640, bias=False)
              (to_v): Linear(in_features=2048, out_features=640, bias=False)
              (to_out): Sequential(
                (0): Linear(in_features=640, out_features=640, bias=True)
                (1): Dropout(p=0.0, inplace=False)
              )
            )
            (norm1): LayerNorm((640,), eps=1e-05, elementwise_affine=True)
            (norm2): LayerNorm((640,), eps=1e-05, elementwise_affine=True)
            (norm3): LayerNorm((640,), eps=1e-05, elementwise_affine=True)
          )
        )
        (proj_out): Linear(in_features=640, out_features=640, bias=True)
      )
      (2): Upsample(
        (conv): Conv2d(640, 640, kernel_size=(3, 3), stride=(1, 1), padding=(1, 1))
      )
    )
    (6): TimestepEmbedSequential(
      (0): ResBlock(
        (in_layers): Sequential(
          (0): GroupNorm32(32, 960, eps=1e-05, affine=True)
          (1): SiLU()
          (2): Conv2d(960, 320, kernel_size=(3, 3), stride=(1, 1), padding=(1, 1))
        )
        (h_upd): Identity()
        (x_upd): Identity()
        (emb_layers): Sequential(
          (0): SiLU()
          (1): Linear(in_features=1280, out_features=320, bias=True)
        )
        (out_layers): Sequential(
          (0): GroupNorm32(32, 320, eps=1e-05, affine=True)
          (1): SiLU()
          (2): Dropout(p=0, inplace=False)
          (3): Conv2d(320, 320, kernel_size=(3, 3), stride=(1, 1), padding=(1, 1))
        )
        (skip_connection): Conv2d(960, 320, kernel_size=(1, 1), stride=(1, 1))
      )
    )
    (7-8): 2 x TimestepEmbedSequential(
      (0): ResBlock(
        (in_layers): Sequential(
          (0): GroupNorm32(32, 640, eps=1e-05, affine=True)
          (1): SiLU()
          (2): Conv2d(640, 320, kernel_size=(3, 3), stride=(1, 1), padding=(1, 1))
        )
        (h_upd): Identity()
        (x_upd): Identity()
        (emb_layers): Sequential(
          (0): SiLU()
          (1): Linear(in_features=1280, out_features=320, bias=True)
        )
        (out_layers): Sequential(
          (0): GroupNorm32(32, 320, eps=1e-05, affine=True)
          (1): SiLU()
          (2): Dropout(p=0, inplace=False)
          (3): Conv2d(320, 320, kernel_size=(3, 3), stride=(1, 1), padding=(1, 1))
        )
        (skip_connection): Conv2d(640, 320, kernel_size=(1, 1), stride=(1, 1))
      )
    )
  )
  (out): Sequential(
    (0): GroupNorm32(32, 320, eps=1e-05, affine=True)
    (1): SiLU()
    (2): Conv2d(320, 4, kernel_size=(3, 3), stride=(1, 1), padding=(1, 1))
  )
  (project_modules): ModuleList(
    (0-1): 2 x ZeroSFT(
      (param_free_norm): GroupNorm32(32, 640, eps=1e-05, affine=True)
      (mlp_shared): Sequential(
        (0): Conv2d(320, 128, kernel_size=(3, 3), stride=(1, 1), padding=(1, 1))
        (1): SiLU()
      )
      (zero_mul): Conv2d(128, 640, kernel_size=(3, 3), stride=(1, 1), padding=(1, 1))
      (zero_add): Conv2d(128, 640, kernel_size=(3, 3), stride=(1, 1), padding=(1, 1))
      (zero_conv): Conv2d(320, 320, kernel_size=(1, 1), stride=(1, 1))
    )
    (2): ZeroSFT(
      (param_free_norm): GroupNorm32(32, 960, eps=1e-05, affine=True)
      (mlp_shared): Sequential(
        (0): Conv2d(320, 128, kernel_size=(3, 3), stride=(1, 1), padding=(1, 1))
        (1): SiLU()
      )
      (zero_mul): Conv2d(128, 960, kernel_size=(3, 3), stride=(1, 1), padding=(1, 1))
      (zero_add): Conv2d(128, 960, kernel_size=(3, 3), stride=(1, 1), padding=(1, 1))
      (zero_conv): Conv2d(320, 320, kernel_size=(1, 1), stride=(1, 1))
    )
    (3): ZeroCrossAttn(
      (attn): CrossAttention(
        (to_q): Linear(in_features=640, out_features=640, bias=False)
        (to_k): Linear(in_features=320, out_features=640, bias=False)
        (to_v): Linear(in_features=320, out_features=640, bias=False)
        (to_out): Sequential(
          (0): Linear(in_features=640, out_features=640, bias=True)
          (1): Dropout(p=0.0, inplace=False)
        )
      )
      (norm1): GroupNorm32(32, 640, eps=1e-05, affine=True)
      (norm2): GroupNorm32(32, 320, eps=1e-05, affine=True)
    )
    (4): ZeroSFT(
      (param_free_norm): GroupNorm32(32, 960, eps=1e-05, affine=True)
      (mlp_shared): Sequential(
        (0): Conv2d(320, 128, kernel_size=(3, 3), stride=(1, 1), padding=(1, 1))
        (1): SiLU()
      )
      (zero_mul): Conv2d(128, 960, kernel_size=(3, 3), stride=(1, 1), padding=(1, 1))
      (zero_add): Conv2d(128, 960, kernel_size=(3, 3), stride=(1, 1), padding=(1, 1))
      (zero_conv): Conv2d(320, 320, kernel_size=(1, 1), stride=(1, 1))
    )
    (5): ZeroSFT(
      (param_free_norm): GroupNorm32(32, 1280, eps=1e-05, affine=True)
      (mlp_shared): Sequential(
        (0): Conv2d(640, 128, kernel_size=(3, 3), stride=(1, 1), padding=(1, 1))
        (1): SiLU()
      )
      (zero_mul): Conv2d(128, 1280, kernel_size=(3, 3), stride=(1, 1), padding=(1, 1))
      (zero_add): Conv2d(128, 1280, kernel_size=(3, 3), stride=(1, 1), padding=(1, 1))
      (zero_conv): Conv2d(640, 640, kernel_size=(1, 1), stride=(1, 1))
    )
    (6): ZeroSFT(
      (param_free_norm): GroupNorm32(32, 1920, eps=1e-05, affine=True)
      (mlp_shared): Sequential(
        (0): Conv2d(640, 128, kernel_size=(3, 3), stride=(1, 1), padding=(1, 1))
        (1): SiLU()
      )
      (zero_mul): Conv2d(128, 1920, kernel_size=(3, 3), stride=(1, 1), padding=(1, 1))
      (zero_add): Conv2d(128, 1920, kernel_size=(3, 3), stride=(1, 1), padding=(1, 1))
      (zero_conv): Conv2d(640, 640, kernel_size=(1, 1), stride=(1, 1))
    )
    (7): ZeroCrossAttn(
      (attn): CrossAttention(
        (to_q): Linear(in_features=1280, out_features=1280, bias=False)
        (to_k): Linear(in_features=640, out_features=1280, bias=False)
        (to_v): Linear(in_features=640, out_features=1280, bias=False)
        (to_out): Sequential(
          (0): Linear(in_features=1280, out_features=1280, bias=True)
          (1): Dropout(p=0.0, inplace=False)
        )
      )
      (norm1): GroupNorm32(32, 1280, eps=1e-05, affine=True)
      (norm2): GroupNorm32(32, 640, eps=1e-05, affine=True)
    )
    (8): ZeroSFT(
      (param_free_norm): GroupNorm32(32, 1920, eps=1e-05, affine=True)
      (mlp_shared): Sequential(
        (0): Conv2d(640, 128, kernel_size=(3, 3), stride=(1, 1), padding=(1, 1))
        (1): SiLU()
      )
      (zero_mul): Conv2d(128, 1920, kernel_size=(3, 3), stride=(1, 1), padding=(1, 1))
      (zero_add): Conv2d(128, 1920, kernel_size=(3, 3), stride=(1, 1), padding=(1, 1))
      (zero_conv): Conv2d(640, 640, kernel_size=(1, 1), stride=(1, 1))
    )
    (9-10): 2 x ZeroSFT(
      (param_free_norm): GroupNorm32(32, 2560, eps=1e-05, affine=True)
      (mlp_shared): Sequential(
        (0): Conv2d(1280, 128, kernel_size=(3, 3), stride=(1, 1), padding=(1, 1))
        (1): SiLU()
      )
      (zero_mul): Conv2d(128, 2560, kernel_size=(3, 3), stride=(1, 1), padding=(1, 1))
      (zero_add): Conv2d(128, 2560, kernel_size=(3, 3), stride=(1, 1), padding=(1, 1))
      (zero_conv): Conv2d(1280, 1280, kernel_size=(1, 1), stride=(1, 1))
    )
    (11): ZeroSFT(
      (param_free_norm): GroupNorm32(32, 1280, eps=1e-05, affine=True)
      (mlp_shared): Sequential(
        (0): Conv2d(1280, 128, kernel_size=(3, 3), stride=(1, 1), padding=(1, 1))
        (1): SiLU()
      )
      (zero_mul): Conv2d(128, 1280, kernel_size=(3, 3), stride=(1, 1), padding=(1, 1))
      (zero_add): Conv2d(128, 1280, kernel_size=(3, 3), stride=(1, 1), padding=(1, 1))
      (zero_conv): Conv2d(1280, 1280, kernel_size=(1, 1), stride=(1, 1))
    )
  )
) does not have a parameter or a buffer named pos_embed.

During handling of the above exception, another exception occurred:

Traceback (most recent call last):
  File "C:\Users\Lightmapper\Documents\GitHub\ComfyUI\execution.py", line 151, in recursive_execute
    output_data, output_ui = get_output_data(obj, input_data_all)
  File "C:\Users\Lightmapper\Documents\GitHub\ComfyUI\execution.py", line 81, in get_output_data
…
